…
** (chart_coco14grand.png:80974): WARNING **: Couldn't connect to accessibility bus: Failed to connect to socket /tmp/dbus-ULbCffudw2: Connection refused
Resizing, random_coef = 1.40 

 608 x 608 
 try to allocate additional workspace_size = 33.55 MB 
 CUDA allocate done! 
 Try to set subdivisions=64 in your cfg-file. 
CUDA status Error: file: ./src/dark_cuda.c : () : line: 373 : build time: Mar 17 2020 - 00:24:05 

 CUDA Error: out of memory
CUDA Error: out of memory: Resource temporarily unavailable
darknet: ./src/utils.c:325: error: Assertion `0' failed.

Aborted (core dumped)





 94 yolo
[yolo] params: iou loss: mse (2), iou_norm: 0.75, cls_norm: 1.00, scale_x_y: 1.00
  95 route  91 		                           ->   26 x  26 x 256 
  96 conv    128       1 x 1/ 1     26 x  26 x 256 ->   26 x  26 x 128 0.044 BF
  97 upsample                 2x    26 x  26 x 128 ->   52 x  52 x 128
  98 route  97 36 	                           ->   52 x  52 x 384 
  99 conv    128       1 x 1/ 1     52 x  52 x 384 ->   52 x  52 x 128 0.266 BF
 100 conv    256       3 x 3/ 1     52 x  52 x 128 ->   52 x  52 x 256 1.595 BF
 101 conv    128       1 x 1/ 1     52 x  52 x 256 ->   52 x  52 x 128 0.177 BF
 102 conv    256       3 x 3/ 1     52 x  52 x 128 ->   52 x  52 x 256 1.595 BF
 103 conv    128       1 x 1/ 1     52 x  52 x 256 ->   52 x  52 x 128 0.177 BF
 104 conv    256       3 x 3/ 1     52 x  52 x 128 ->   52 x  52 x 256 1.595 BF
 105 conv    114       1 x 1/ 1     52 x  52 x 256 ->   52 x  52 x 114 0.158 BF
 106 yolo
[yolo] params: iou loss: mse (2), iou_norm: 0.75, cls_norm: 1.00, scale_x_y: 1.00
Total BFLOPS 65.537 
avg_outputs = 523091 
 Allocate additional workspace_size = 33.55 MB 
Loading weights from backup/coco14grand_last.weights...
 seen 64, trained: 524 K-images (8 Kilo-batches_64) 
Done! Loaded 107 layers from weights-file 
Learning Rate: 0.004, Momentum: 0.9, Decay: 0.0005
…
